model.pt (torch, 266204 bytes, 10 tensors)

model.0.module.weight f4 [16, 3, 3, 3]
0.031067133 0.14656967 0.12586711 0.18248129 0.18300827 -0.16109161 0.102429345 0.038971458
-0.055597067 0.14122127 -0.14797556 0.2053203 -0.19590478 -0.14410393 -0.18996736 -0.16250709
0.09869678 -0.0063285707 -0.059692904 0.17959572 0.14654632 -0.18992633 -0.13952963 -0.09078464
0.0727746 -0.10916864 -0.048414245 0.06506459 -0.14226726 -0.10926831 -0.011579103 0.0793893
0.10602163 0.18866579 0.1743167 -0.060704283 -0.22953145 -0.23416917 0.040954385 0.11099932
-0.06881674 -0.059568048 -0.02739839 0.07083257 -0.13648443 -0.24031892 -0.22723174 -0.08156206
0.028540818 0.12023486 -0.007997801 0.16948034 0.22018616 0.19828387 -0.12314361 -0.13499232
-0.026962379 -0.06847601 0.040159944 0.09283524 0.16021697 -0.09573413 0.032438904 -0.029919535
0.029468473 -0.14293395 0.19521059 0.15944256 -0.08049752 0.100562826 -0.03428366 0.08815382
-0.10758073 -0.14257726 0.13560818 -0.13884759 -0.090210356 -0.02505284 0.15135773 -0.11571254
0.0423629 -0.11676806 0.07322253 -0.1684149 0.004521225 0.042046603 -0.052602775 -0.10035038
-0.05238075 -0.026952334 0.14823106 0.1987855 0.21663839 -0.05879757 -0.035449967 -0.18894127
-0.22364713 0.015864087 0.058570154 0.14771095 -0.062119536 0.025357665 0.16557181 -0.07237313
-0.0848689 -0.08407567 -0.025124425 0.07770383 0.20166641 0.06804067 0.20441422 0.16709109
0.09733618 0.24103394 -0.0042994386 0.0991843 -0.14762509 -0.027107244 -0.10313872 -0.06779812
-0.16683279 -0.023566127 -0.15044457 -0.16738868 0.11648486 0.104341954 -0.045877445 0.20493677
-0.09549532 0.16796789 -0.097680226 -0.16405916 0.008839859 0.21366279 0.18480301 -0.18494703
-0.064704135 0.06652467 -0.038867064 0.111708716 -0.031274892 -0.094849296 -0.038079422 0.012340924
-0.20993795 0.1499069 -0.09521606 -0.14798617 -0.10829998 0.12487914 -0.0939249 -0.06553664
0.16971353 0.06733929 0.15404227 0.10275892 -0.095115915 0.12648219 0.17990369 -0.08269712
0.21204454 0.1611818 -0.044179697 -0.02689921 0.0054664076 -0.037422452 0.1323204 0.07957709
0.010189334 -0.0037349893 0.1731035 0.1329852 0.047766007 0.17862853 -0.17299497 0.0051351506
0.04556392 -0.19430795 0.09517269 0.047355343 -0.19053543 -0.019354949 -0.09452538 -0.19630425
-0.072661884 0.1786505 -0.10700339 0.11859021 0.006359547 -0.14086004 0.13573396 0.0753968
0.10224226 0.023664705 0.0466754 0.008009315 -0.072883815 0.025924562 0.03306217 -0.045436665
0.048277993 -0.03270657 -0.03292129 0.08696798 -0.0019370597 0.04963541 0.187429 -0.11324371
-0.020252042 -0.06454047 -0.12605697 -0.0039426927 0.12785941 -0.15640576 -0.13434356 -0.1357628
-0.02089823 -0.07686227 0.12440873 -0.08964719 -0.1750346 0.22019747 -0.17826648 -0.03665032
0.09279939 0.0795805 0.030876225 0.16879869 0.002109591 -0.058173142 0.1431773 -0.066738896
-0.23388508 -0.16244166 -0.08293893 -0.10946727 0.09056882 -0.19298103 0.1614089 0.15093102
-0.17838378 0.10894572 0.20788144 -0.072550744 0.008621044 -0.030600872 0.06428795 -0.18893646
-0.046248563 0.09257202 0.060790796 -0.000800048 0.039025847 0.008664422 -0.15789084 -0.03724922
00000000: 8080 fe3c 5c16 163e 4fe3 003e 60dc 3a3e
00000010: 8566 3b3e 33f5 24be 7ac6 d13d 89a0 1f3d
00000020: c0b9 63bd 4f9c 103e e886 17be 7c3f 523e
00000030: 439b 48be fb8f 13be ce86 42be 4268 26be
00000040: 8a21 ca3d e65f cfbb 8c80 74bd f1e7 373e
00000050: 3d10 163e 0c7c 42be dbe0 0ebe 4ced b9bd
00000060: d90a 953d cf93 dfbd 044e 46bd 9540 853d
00000070: 82ae 11be 10c8 dfbd 47b6 3dbc db96 a23d
00000080: de21 d93d 9b31 413e 1480 323e 0ea5 78bd
00000090: 4b0a 6bbe 0bca 6fbe c9bf 273d 9d53 e33d
000000a0: caef 8cbd a0fd 73bd 9772 e0bc ab10 913d
000000b0: 93c2 0bbe 2a16 76be 70af 68be 020a a7bd
000000c0: 6fce e93c b23d f63d 3509 03bc 418c 2d3e
000000d0: 7b78 613e ed0a 4b3e b832 fcbd 6d3b 0abe
000000e0: 35e0 dcbc 263d 8cbd c17e 243d 6720 be3d
000000f0: eb0f 243e 4110 c4bd a8de 043d d019 f5bc
00000100: de67 f13c 475d 12be 49e5 473e e944 233e
00000110: e2db a4bd e2f3 cd3d 066d 0cbd fd89 b43d
00000120: 4953 dcbd c6ff 11be dfdc 0a3e 102e 0ebe
00000130: 35c0 b8bd 9d3b cdbc 85fd 1a3e b2fa ecbd
00000140: b884 2d3d 1824 efbd b2f5 953d f574 2cbe
00000150: c926 943b 0f39 2c3d 0276 57bd 8084 cdbd
00000160: 338d 56bd 24cb dcbc e2c9 173e 6d8e 4b3e
00000170: 74d6 5d3e b9d5 70bd fc33 11bd d279 41be
00000180: c103 65be 67f5 813c 42e7 6f3d 8a41 173e
00000190: 0e71 7ebd e1ba cf3c a88b 293e 5d38 94bd
000001a0: bfcf adbd dd2f acbd bdd1 cdbc 3023 9f3d
000001b0: a481 4e3e e858 8b3d f651 513e ed19 2b3e
000001c0: 3158 c73d 9ad1 763e 4ee2 8cbb 2321 cb3d
000001d0: 082b 17be 0310 debc 653a d3bd bed9 8abd
000001e0: 37d6 2abe c00d c1bc 240e 1abe f067 2bbe
000001f0: 9d8f ee3d 3cb1 d53d fde9 3bbd f2da 513e
00000200: 0d93 c3bd c6ff 2b3e 920c c8bd 20ff 27be
00000210: 0ed5 103c 6bca 5a3e 003d 3d3e c162 3dbe
00000220: 9a83 84bd 163e 883d 1233 1fbd 8ac7 e43d
00000230: 1a1a 00bd 5940 c2bd 2bf9 1bbd 9631 4a3c
00000240: f9f9 56be 3281 193e a300 c3bd b089 17be
00000250: 61cc ddbd a2c0 ff3d b35b c0bd 1338 86bd
00000260: 62c9 2d3e 2fe9 893d 42bd 1d3e 4573 d23d
00000270: 22cc c2bd 8c84 013e ac38 383e 1c5d a9bd
00000280: 3422 593e d70c 253e c5f5 34bd bb5b dcbc
00000290: 8d1f b33b 4948 19bd 007f 073e 50f9 a23d
000002a0: 2af1 263c b9c6 74bb 0b42 313e 462d 083e
000002b0: 4aa6 433d 66ea 363e 9825 31be c444 a83b
000002c0: 3ca1 3a3d aaf8 46be e6e9 c23d adf7 413d
000002d0: b81b 43be 458e 9ebc 8696 c1bd fb03 49be
000002e0: c1cf 94bd 28f0 363e 9824 dbbd 6ddf f23d
000002f0: bf63 d03b 9d3d 10be d8fd 0a3e a369 9a3d
00000300: 6464 d13d 7cdc c13c b42e 3f3d 8039 033c
00000310: 1c44 95bd bf5f d43c 336c 073d cc1b 3abd
00000320: 25bf 453d 53f7 05bd 79d8 06bd 451c b23d
00000330: f0e4 fdba 804e 4b3d 63ed 3f3e 51ec e7bd
00000340: 9ce7 a5bc cb2d 84bd 1415 01be b431 81bb
00000350: 94ed 023e d528 20be 5c91 09be 6705 0bbe
00000360: c432 abbc f769 9dbd 01ca fe3d f298 b7bd
00000370: 453c 33be 727b 613e 7d8b 36be a51e 16bd
00000380: 9b0d be3d 1afb a23d 23f0 fc3c 90d9 2c3e
00000390: 1041 0a3b f646 6ebd 129d 123e 67ae 88bd
000003a0: 927f 6fbe 1b57 26be e3db a9bd 6030 e0bd
000003b0: 257c b93d d29c 45be 6048 253e a98d 1a3e
000003c0: 3daa 36be ef1e df3d dfde 543e 7c95 94bd
000003d0: 483f 0d3c aeae fabc 67a9 833d 8f78 41be
000003e0: 226f 3dbd 6696 bd3d c5ff 783d 50ba 51ba
000003f0: 91d9 1f3d 38f5 0d3c 23ae 21be a392 18bd

model.0.module.bias f4 [16]
0.20769097 -0.07851721 0.20079938 0.0038232456 -0.14874417 -0.07613516 -0.16844602 -0.14941613
0.083252676 0.04823119 0.015674397 -0.058069892 -0.14595264 0.032302946 -0.091980584 -0.20293656
00000000: f1ac 543e a2cd a0bd 5a9e 4d3e 6b8f 7a3b
00000010: 6450 18be c0ec 9bbd 1d7d 2cbe 8b00 19be
00000020: 6180 aa3d 118e 453d 9867 803c b2da 6dbd
00000030: 9c74 15be 1850 043d 5160 bcbd 9ace 4fbe

model.4.module.weight f4 [32, 16, 3, 3]
0.06453669 0.0046370206 0.098106176 0.104591735 0.01244499 0.04502164 -0.002121971 0.004019022
0.039080217 0.07123862 0.022517974 0.10939936 0.12312189 0.019515937 0.078672595 -0.016424924
-0.057346903 -0.06294911 -0.001573277 -0.05026653 -0.0055101956 0.046688728 0.05857272 0.04563363
-0.03760547 -0.013772702 0.09530663 0.014428794 0.0777358 0.10211075 -0.04068178 -0.016678162
0.037987232 -0.099199235 -0.008639874 0.033590756 -0.040514592 -0.13563596 -0.036501553 -0.029464642
0.0026683675 -0.09433066 -0.14300482 -0.14493182 -0.10876037 0.029559541 -0.03449117 0.057750165
-0.031356454 0.022075087 -0.005012081 -0.11539334 -0.1406866 -0.09140262 -0.024907669 -0.045523655
-0.061518464 -0.101212844 -0.029404903 -0.005640614 -0.10488733 -0.023678202 -0.11407202 0.02856126
0.034049705 0.00743982 -0.06868192 -0.13383272 -0.04944088 0.0018131179 -0.02617949 -0.031987615
-0.0063109053 0.109838374 -0.036688697 0.039133515 0.07190178 -0.055547096 -0.032778297 -0.084261134
-0.09155216 0.0034628639 0.09628443 0.116947085 0.061548997 0.08673623 -0.014337038 0.03491555
-0.057571013 0.018490952 0.07298805 0.077554815 0.012459633 -0.031037807 -0.040796615 -0.036223885
0.05078153 0.069589384 -0.036201876 -0.009559513 -0.02567914 0.022306819 0.054679073 -0.049457543
0.08643542 -0.0462841 -0.046876345 0.016814956 -0.03082865 0.04233883 0.018215762 -0.018880144
0.09407442 -0.015855012 0.021369794 0.038297463 -0.04260707 0.06336217 0.035699975 -0.051824126
0.037596695 0.048075505 -0.06032665 -0.11417022 -0.020033458 0.027530123 0.05776974 0.024563218
0.008429994 -0.066255026 -0.113622926 -0.0353484 -0.030065725 -0.05135913 -0.029420713 -0.08378153
0.037435114 -0.06803472 -0.092589855 -0.06004327 -0.09855966 -0.102350004 -0.012357105 -0.08219281
-0.051691398 -0.075791396 -0.08296359 -0.07635679 -0.06985715 0.030913793 -0.090262905 -0.083581306
0.03781388 -0.03519064 -0.026882164 -0.056917574 -0.055408854 0.006516472 -0.08454093 -0.10156115
-0.093332045 -0.045420967 0.010437385 -0.053100612 -0.07990531 0.042716116 -0.054800045 -0.054376647
0.0009143932 -0.06921546 0.013063224 0.053770613 -0.0637349 0.034563437 0.061734047 0.035091408
-0.090244986 -0.011647683 -0.04413109 -0.008623958 0.1041897 0.014738918 0.05529033 0.006771348
0.015861824 -0.04423046 0.08402098 0.09230814 -0.030523527 0.018055113 0.061523452 0.09788319
-0.009017594 -0.030527798 0.0790326 0.06785042 -0.060380418 -0.026778417 0.03693472 -0.023457985
-0.051185988 -0.03803562 0.023511823 0.10415166 -0.011304693 0.050793137 0.031937823 -0.057168633
-0.057891924 -0.0025580332 -0.0203286 -0.07199508 -0.064851604 -0.053537324 0.04754605 0.041588485
-0.0025569785 -0.075483 0.023432229 0.031999033 -0.07441423 -0.075781874 0.068877675 0.051136468
0.0003758231 0.00889161 -0.10995586 -0.007089544 -0.08218702 -0.029454947 -0.04267822 -0.05297902
-0.06802357 -0.052106302 0.035725567 -0.049907032 0.03978175 -0.086751185 -0.071516715 -0.078273594
-0.032303702 0.00969274 -0.039242458 0.0957599 0.06735396 0.061367206 -0.030925944 0.036298968
-0.02076526 0.057516046 0.037999857 0.028029066 0.02440312 -0.0714536 0.08244554 -0.059420552
00000000: d02b 843d 26f2 973b e4eb c83d 3134 d63d
00000010: 12e6 4b3c 9c68 383d c410 0bbb 00b2 833b
00000020: 9412 203d 8ee5 913d 9d77 b83c c60c e03d
00000030: 5427 fc3d e3df 9f3c 191f a13d 908d 86bc
00000040: 96e4 6abd 77eb 80bd 6b36 ceba 47e4 4dbd
00000050: df8e b4bb ae3c 3f3d f3e9 6f3d 54ea 3a3d
00000060: 3108 1abd e6a6 61bc 1f30 c33d c066 6c3c
00000070: f233 9f3d 711f d13d f0a1 26bd a4a0 88bc
00000080: 8098 1b3d f828 cbbd 428e 0dbc 7696 093d
00000090: a1f2 25bd 27e4 0abe a782 15bd d55f f1bc
000000a0: c7df 2e3b 6f30 c1bd db6f 12be 0269 14be
000000b0: c2bd debd da26 f23c 9d46 0dbd 708b 6c3d
000000c0: a06f 00bd d0d6 b43c 623c a4bb 5853 ecbd
000000d0: 2610 10be 4c31 bbbd 2b0b ccbc 0377 3abd
000000e0: c9fa 7bbd ae48 cfbd 8de2 f0bc e6d4 b8bb
000000f0: 2bcf d6bd caf8 c1bc 979e e9bd 4ef9 e93c
00000100: b477 0b3d bcc9 f33b 1ba9 8cbd 720b 09be
00000110: 8582 4abd 24a6 ed3a 5f76 d6bc 7205 03bd
00000120: b6cb cebb f1f2 e03d e346 16bd 774a 203d
00000130: 3e41 933d 5a85 63bd 8942 06bd 1a91 acbd
00000140: b37f bbbd 37f1 623b c530 c53d f481 ef3d
00000150: cd1a 7c3d c4a2 b13d e5e5 6abc 9c03 0f3d
00000160: 95cf 6bbd 567a 973c c27a 953d 0fd5 9e3d
00000170: 7d23 4c3c 0043 febc 5a1a 27bd 7f5f 14bd
00000180: 4b00 503d e184 8e3d 6b48 14bd 819f 1cbc
00000190: 0f5d d2bc cabc b63c 2af7 5f3d fe93 4abd
000001a0: 0e05 b13d 6594 3dbd 6901 40bd 85bf 893c
000001b0: 5d8c fcbc 7b6b 2d3d 3939 953c 88aa 9abc
000001c0: 17aa c03d 5fe2 81bc b50f af3c cddd 1c3d
000001d0: c084 2ebd 06c4 813d 233a 123d 8945 54bd
000001e0: fefe 193d d2ea 443d 1419 77bd 14d2 e9bd
000001f0: 351d a4bc da86 e13c f69f 6c3d cd38 c93c
00000200: f51d 0a3c b7b0 87bd 23b3 e8bd 7cc9 10bd
00000210: 654c f6bc f35d 52bd b503 f1bc a795 abbd
00000220: 9055 193d ca55 8bbd c09f bdbd efef 75bd
00000230: a6d9 c9bd e19c d1bd 7475 4abc b454 a8bd
00000240: 5cba 53bd 8538 9bbd d1e8 a9bd f360 9cbd
00000250: 4411 8fbd ec3e fd3c c2db b8bd ad2c abbd
00000260: bae2 1a3d 0f24 10bd fc37 dcbc 6722 69bd
00000270: 65f4 62bd 2188 d53b cc23 adbd 4bff cfbd
00000280: df24 bfbd 560b 3abd 9101 2b3c 0780 59bd
00000290: 65a5 a3bd 18f7 2e3d 0376 60bd 0cba 5ebd
000002a0: e4b3 6f3a d6c0 8dbd 2207 563c 933e 5c3d
000002b0: 7187 82bd 6492 0d3d d7dc 7c3d 02bc 0f3d
000002c0: 5dd2 b8bd ecd5 3ebc cdc2 34bd 804b 0dbc
000002d0: 6961 d53d 817b 713c 1d78 623d 2fe2 dd3b
000002e0: a8f0 813c 002b 35bd 3113 ac3d 0d0c bd3d
000002f0: 7a0c fabc 51e8 933c 0400 7c3d fb76 c83d
00000300: 88be 13bc 6f15 fabc d8db a13d 29f5 8a3d
00000310: 7551 77bd 695e dbbc dc48 173d f62a c0bc
00000320: 66a8 51bd 3dcb 1bbd de9b c03c 774d d53d
00000330: 5237 39bc 770c 503d 3cd1 023d a829 6abd
00000340: 1520 6dbd ada4 27bb 2a88 a6bc 2872 93bd
00000350: ebd0 84bd f449 5bbd a6bf 423d b058 2a3d
00000360: fb92 27bb d596 9abd f2f4 bf3c 6b11 033d
00000370: 7d66 98bd 8733 9bbd bd0f 8d3d 7974 513d
00000380: 1f0a c539 1eae 113c 8a30 e1bd 684f e8bb
00000390: ab51 a8bd 804b f1bc 5bcf 2ebd 8700 59bd
000003a0: f14f 8bbd 6b6d 55bd f954 123d 516b 4cbd
000003b0: 30f2 223d 9baa b1bd 5b77 92bd e84d a0bd
000003c0: e350 04bd 4cce 1e3c b3bc 20bd c41d c43d
000003d0: dff0 893d 2e5c 7b3d 6858 fdbc 3aae 143d
000003e0: e81b aabc f295 6b3d bda5 1b3d 369d e53c
000003f0: 0de9 c73c 4456 92bd 35d9 a83d f762 73bd

model.4.module.bias f4 [32]
0.11307456 -0.10689099 0.0055432543 -0.071697995 0.018444931 0.008529464 -0.10225452 0.01996876
-0.12302654 0.0869749 0.024864886 -0.05809796 0.08642263 -0.016799493 0.0930667 -0.09125703
-0.035613846 0.107289426 0.016579838 -0.062424205 0.11427843 -0.066222355 -0.057797987 -0.0076736873
0.11627576 -0.035983007 0.04920802 -0.0027880187 0.023077605 -0.044276968 0.00051023526 -0.028301304
00000000: a393 e73d aae9 dabd 30a4 b53b 66d6 92bd
00000010: d319 973c 2abf 0b3c d16a d1bd 8695 a33c
00000020: 57f5 fbbd e51f b23d 72b1 cb3c 20f8 6dbd
00000030: 59fe b03d 179f 89bc c199 be3d f7e4 babd
00000040: d3df 11bd 8fba db3d 71d2 873c 86b0 7fbd
00000050: cf0a ea3d 969f 87bd 95bd 6cbd 8e73 fbbb
00000060: fc21 ee3d eb62 13bd 598e 493d 31b7 36bb
00000070: 3f0d bd3c c45b 35bd 4fc1 053a 23d8 e7bc

model.8.module.weight f4 [64, 32, 3, 3]
0.00074645045 0.06596479 0.059010047 -0.022067726 -0.08800216 -0.04093184 0.050354004 -0.03004391
-0.034381714 -0.024958802 -0.05686228 -0.016707508 -0.028023964 -0.061589126 -0.041046977 -0.025909396
0.007336137 0.021235751 0.0571125 0.05317557 -0.014433517 0.028067553 0.045246493 -0.014499405
-0.08099271 -0.066009074 0.08019412 -0.013481983 0.025179563 0.03223116 0.07661753 0.07126832
0.09293583 -0.034784947 -0.05217072 0.015333297 0.013025387 -0.06231162 -0.0614064 -0.020546487
-0.029358204 0.04704783 0.100335054 0.008501724 0.09792327 -0.012170797 -0.06688093 -0.022251487
-0.020346519 -0.006223823 -0.05264381 0.053271428 -0.084692955 0.025581628 0.013028379 -0.001903582
-0.06295378 -0.08147874 -0.1342139 -0.09152947 -0.09906241 -0.041812304 -0.089628525 0.054196987
-0.03310376 -0.06257585 -0.022846939 0.009168285 -0.15434586 -0.0060035116 0.013360071 -0.0008924715
-0.010496636 -0.07792605 -0.021810688 -0.019882778 -0.027622333 -0.09981474 -0.050235875 -0.063973956
-0.028582895 0.028374977 0.001502857 0.08412402 0.03980435 0.13678306 0.08984642 -0.0017632161
0.030194744 -0.019356098 -0.026353803 -0.010934173 -0.013394498 -0.01858896 0.05831378 -0.002980617
-0.023749888 0.01069121 -0.012082086 0.02932339 0.025212796 -0.041389666 0.0084384335 -0.064499795
-0.008230803 -0.059022244 -0.02490466 -0.03248266 -0.041322805 -0.010506762 -0.027331403 0.05042068
-0.043789398 0.0031705126 -0.006854995 -0.072879165 -0.059154976 -0.020223944 -0.039391853 0.049470417
0.04992097 0.061730184 0.030646613 -0.033759575 -0.02905286 0.016165333 0.025578452 -0.032217897
-0.0015716753 -0.033719774 0.018990757 -0.00045731096 -0.04259356 -0.013178147 0.03163697 -0.041936316
-0.049166057 -0.022238981 -0.056259092 -0.06815319 -0.009699766 0.014504048 -0.058025576 -0.06425418
-0.024748774 -0.03439984 -0.07907771 0.039835162 -0.056771748 -0.00436519 -0.04174324 -0.037148163
-0.028157583 0.06453259 -0.027767798 0.00070660363 0.093084365 0.06573604 -0.025010964 0.049908232
0.04920471 0.029828556 -0.0030900864 -0.025839515 -0.0034520193 0.026368633 -0.043971356 -0.019261252
-0.0055331914 0.008701929 0.014742239 0.027708398 -0.066188075 -0.004118417 0.008849878 -0.06973219
-0.049889203 0.0035670416 0.001915214 0.041444663 0.026530316 0.056699872 0.069715105 0.0324573
0.032846615 0.044511016 0.042480823 0.044205494 0.035605352 -0.04351946 -0.009875131 0.048531212
-0.029702688 0.06407261 0.06682539 -0.030397268 -0.016043939 -0.011982886 -0.007554796 0.022958567
0.023796344 -0.0073647923 -0.070801474 -0.024220757 -0.009836854 0.00068749127 0.024210706 0.0034526908
-0.035320807 0.021090806 0.057965167 0.0012716718 0.0336968 -0.03358163 -0.06745644 0.04846931
-0.014276553 -0.03967422 0.028668597 0.031111933 0.027603628 -0.037081245 0.09195463 0.07450733
0.030315075 -0.030276343 -0.038060315 -0.044679813 -0.05863198 -0.018783495 0.0003948585 -0.068469174
-0.010221467 0.048090827 -0.056857273 0.013333672 0.051701657 -0.099850416 -0.02168307 -0.10186849
0.019290058 0.03639888 -0.0040895925 -0.03311975 0.01445074 -0.020105166 -0.008062339 -0.0134056015
0.03019007 -0.0027956674 0.018366056 -0.034111433 -0.019395424 -0.017752532 0.0213004 -0.042635474
00000000: 71ad 433a 8c18 873d 85b4 713d 60c7 b4bc
00000010: 7a3a b4bd 25a8 27bd 0040 4e3d a51e f6bc
00000020: d7d3 0cbd 6776 ccbc 6ce8 68bd 2fde 88bc
00000030: 8392 e5bc e144 7cbd e020 28bd f13f d4bc
00000040: fa63 f03b 99f6 ad3c ccee 693d a0ce 593d
00000050: 8f7a 6cbc eded e53c 6354 393d ea8e 6dbc
00000060: 82df a5bd c42f 87bd d13c a43d 89e3 5cbc
00000070: 5f45 ce3c d204 043d a7e9 9c3d 20f5 913d
00000080: 2455 be3d a97a 0ebd f7b0 55bd 8238 7b3c
00000090: 6f68 553c 783a 7fbd 4785 7bbd 1b51 a8bc
000000a0: 9e80 f0bc 3ab5 403d 777c cd3d d14a 0b3c
000000b0: ff8b c83d 0668 47bc def8 88bd c048 b6bc
000000c0: bead a6bc 36f1 cbbb 09a1 57bd 2433 5a3d
000000d0: 8073 adbd 9090 d13c fb74 553c 9d81 f9ba
000000e0: e9ed 80bd 53de a6bd 5e6f 09be ce73 bbbd
000000f0: 3ce1 cabd 6143 2bbd 298f b7bd a9fd 5d3d
00000100: cf97 07bd c427 80bd 8129 bbbc 9336 163c
00000110: d70c 1ebe 1bb9 c4bb 33e4 5a3c c0f4 69ba
00000120: 15fa 2bbc b197 9fbd 54ac b2bc 35e1 a2bc
00000130: 3b48 e2bc ac6b ccbd 22c4 4dbd c704 83bd
00000140: ad26 eabc a472 e83c 83fb c43a 3749 ac3d
00000150: e309 233d dc10 0c3e 6601 b83d b71b e7ba
00000160: f85a f73c ae90 9ebc eee3 d7bc 3f25 33bc
00000170: 9974 5bbc e047 98bc 6eda 6e3d 7556 43bb
00000180: 208f c2bc 2f2a 2f3c f1f3 45bc 9b37 f03c
00000190: 118b ce3c 3688 29bd 5b41 0a3c 7818 84bd
000001a0: 7dda 06bc 4fc1 71bd dc04 ccbc 8a0c 05bd
000001b0: 1a42 29bd 8e24 2cbc 1be6 dfbc ea85 4e3d
000001c0: 835c 33bd 60c8 4f3b de9f e0bb ac41 95bd
000001d0: 7d4c 72bd afac a5bc 5a59 21bd 7ea1 4a3d
000001e0: ee79 4c3d cad8 7c3d 9b0e fb3c 7b47 0abd
000001f0: 4300 eebc 296d 843c e789 d13c eaf6 03bd
00000200: ac00 ceba bf1d 0abd 8192 9b3c 3dc3 efb9
00000210: 9676 2ebd 28e9 57bc c495 013d 6ac5 2bbd
00000220: 5962 49bd 862e b6bc ef6f 66bd e693 8bbd
00000230: c4eb 1ebc 63a2 6d3c 3aac 6dbd b297 83bd
00000240: f1bd cabc d9e6 0cbd 7ff3 a1bd 322a 233d
00000250: 7e89 68bd de09 8fbb f6fa 2abd ac28 18bd
00000260: bbaa e6bc aa29 843d 4b79 e3bc 5e3b 393a
00000270: 04a3 be3d 9ea0 863d cbe3 ccbc 936c 4c3d
00000280: e18a 493d 045b f43c 0c83 4abb 64ad d3bc
00000290: 463b 62bb 0803 d83c 4f1b 34bd c6c9 9dbc
000002a0: c64f b5bb 8992 0e3c 6f89 713c b9fc e23c
000002b0: 9d8d 87bd c9f3 86bb 14ff 103c c0cf 8ebd
000002c0: 9f58 4cbd 07c5 693b eb07 fb3a e1c1 293d
000002d0: 1b56 d93c 203e 683d cbc6 8e3d f2f1 043d
000002e0: 2c8a 063d 2f51 363d 5f00 2e3d d210 353d
000002f0: ebd6 113d 7641 32bd 4dcb 21bc aac8 463d
00000300: 0d53 f3bc 8038 833d c0db 883d b103 f9bc
00000310: 946e 83bc de53 44bc 398e f7bb 9b13 bc3c
00000320: 8df0 c23c 5b54 f1bb 5d00 91bd 9c6a c6bc
00000330: c22a 21bc c238 343a 8855 c63c 8a46 623b
00000340: 8dac 10bd a0c6 ac3c e26c 6d3d 3aae a63a
00000350: a805 0a3d e48c 09bd 9a26 8abd c187 463d
00000360: 34e8 69bc 6f81 22bd 68da ea3c 74de fe3c
00000370: 0121 e23c 81e2 17bd b652 bc3d 4d97 983d
00000380: 5257 f83c 1806 f8bc 22e5 1bbd 2e02 37bd
00000390: 1628 70bd d8df 99bc 0305 cf39 9139 8cbd
000003a0: f177 27bc e3fa 443d 2ce3 68bd 7975 5a3c
000003b0: 1ec5 533d 607e ccbd b2a0 b1bc 6da0 d0bd
000003c0: 2f06 9e3c fe16 153d fd01 86bb 93a8 07bd
000003d0: ccc2 6c3c 97b3 a4bc e717 04bc 2ba3 5bbc
000003e0: 2a51 f73c 8437 37bb 6974 963c 6eb8 0bbd
000003f0: 27e3 9ebc c26d 91bc 2d7e ae3c 89a2 2ebd

model.8.module.bias f4 [64]
0.09555152 -0.052775215 -0.033153307 -0.01816324 -0.07317099 0.02709228 0.03732036 0.03498252
0.08886953 0.018204434 0.06919034 -0.06560486 0.01289461 0.03753339 -0.0781253 0.036327507
-0.091584 0.00085501303 0.011624944 -0.018315861 0.014742047 -0.0038183306 0.06387819 -0.0042544245
0.006409155 -0.045145016 0.06747456 0.057687744 -0.025542004 0.042683005 -0.0037777757 -0.05689058
-0.0011779631 0.01592185 -0.04127607 -0.014060491 -0.057142667 0.0011110951 0.072532825 -0.09096059
-0.07954091 0.02288911 0.03475632 -0.08268003 -0.08603112 0.026335694 0.003858511 0.019949704
0.02010744 -0.06330393 -0.08873492 0.08368183 0.04060898 -0.017954292 -0.019100793 0.09575538
-0.046763964 -0.07926806 0.09304894 0.034504715 0.025444236 -0.066957414 0.06535232 -0.055948902
00000000: 84b0 c33d d32a 58bd c3cb 07bd 13cb 94bc
00000010: acda 95bd a1f0 dd3c 3cdd 183d d549 0f3d
00000020: 3a01 b63d 7721 953c aab3 8d3d d75b 86bd
00000030: ea43 533c 9dbc 193d 2800 a0bd 27cc 143d
00000040: 6490 bbbd f422 603a 8d76 3e3c 250b 96bc
00000050: a088 713c f53c 7abb 92d2 823d b368 8bbb
00000060: e403 d23b fbe9 38bd 1a30 8a3d fc49 6c3d
00000070: 773d d1bc 60d4 2e3d 8f94 77bb 1906 69bd
00000080: e265 9aba 8a6e 823c 1911 29bd f95d 66bc
00000090: 6e0e 6abd 2aa2 913a 178c 943d 8c49 babd
000000a0: 58e6 a2bd f181 bb3c a55c 0e3d 2654 a9bd
000000b0: 1531 b0bd f4bd d73c 13df 7c3b 906d a33c
000000c0: 5cb8 a43c 7ea5 81bd a7ba b5bd 6161 ab3d
000000d0: 9a55 263d e114 93bc 4479 9cbc 661b c43d
000000e0: 928b 3fbd 4b57 a2bd 7190 be3d d154 0d3d
000000f0: 6e70 d03c f820 89bd 70d7 853d ad2a 65bd

model.12.module.weight f4 [64, 64, 3, 3]
0.017416283 -0.0008786983 -0.0076536755 -0.017768832 0.021947462 0.04964048 -0.04017496 0.017900204
-0.0056875334 0.024270708 -0.041161943 -0.006180972 -0.01134303 0.0069924085 -0.0009529132 0.032905128
-0.044606563 -0.011645203 -0.018975042 -0.021143438 -0.04029561 -0.050713684 0.03829319 0.02609191
-0.006856465 -0.07972423 0.04679981 0.03732811 -0.011091364 -0.007968522 0.019763745 0.046328627
0.05695222 0.0060920664 -0.024499863 0.03847886 -0.0013787542 -0.021416785 -0.060862653 -0.05020617
-0.033030666 -0.06203084 -0.047455564 -0.004384408 0.032269306 0.028189015 0.0026314522 -0.02557538
-0.015678525 -0.012536465 0.028756363 -0.041504756 -0.005387716 0.055484146 -0.011625223 -0.043988876
-0.005525078 0.008413276 0.04153281 -0.042843986 -0.039265625 0.024077395 0.021517446 -0.025486398
-0.06251179 -0.047539882 0.012098717 0.019924257 -0.010995069 -0.02245091 -0.012654717 0.03430514
0.023947004 0.0028395015 -0.037368584 -0.027034152 -0.03717901 0.047484845 0.022080934 0.0028929668
0.08339081 0.014717514 -0.056349676 -0.07689213 0.01878281 0.0075809425 -0.016464908 -0.0019213548
0.015491584 0.030512547 -0.0010974172 0.004226427 0.0017343861 -0.0348217 -0.03384694 -0.005210075
-0.029607527 0.08132868 0.0966371 -0.03649437 -0.030946877 -0.08850189 -0.05532744 -0.004041406
-0.012925591 -0.058538165 -0.032930005 0.04396469 -0.021398945 -0.06565641 -0.04682005 0.026267964
0.086163014 0.00257733 -0.0483236 -0.083860904 0.0053134146 0.032826863 -0.04614344 -0.0014031808
-0.005294757 0.037131067 0.039981466 0.0048382236 0.014830388 0.024769036 0.012542576 -0.06633894
-0.050841697 -0.07710546 -0.050527006 0.041487608 0.0010343674 0.038721453 0.045564357 0.013056538
0.008133324 -0.0021631327 -0.027940055 -0.07417022 0.01845284 -0.0028630965 0.094921626 0.1193288
-0.006656444 -0.050306015 -0.05833333 -0.06012489 0.033815484 -0.0108715305 0.03567606 -0.03773346
0.018258436 0.04152006 -0.061066452 -0.024395693 -0.033745006 -0.047622383 -0.0028955564 -0.013610321
0.02583919 0.080772 0.016611023 -0.086679496 -0.023801146 -0.034497418 0.11210398 0.09834523
-0.014998663 0.009419676 -0.047692273 -0.020098139 -0.0079596285 0.008821558 -0.008273965 -0.036300123
-0.046697196 -0.040543247 0.046187602 0.06709931 0.00222583 -0.08068893 -0.069443434 0.0047945483
0.033971425 0.020902587 -0.027124645 0.0070389844 0.03151229 -0.03365058 -0.05082576 -0.004240582
-0.05219472 -0.019759145 -0.0061307503 -0.024139434 -0.059403818 -0.076439254 -0.02323543 -0.013545566
-0.058878016 -0.0014204772 -0.021717444 0.078155085 -0.05157815 0.0038877947 0.13475028 -0.015277039
-0.06437402 -0.08537165 -0.05511213 0.022962922 -0.0132171055 -0.06693455 -0.106063254 -0.09921644
0.0026165992 -0.06841434 -0.04607845 -0.050185386 -0.05709883 -0.0353397 -0.030318167 0.0053865896
0.06343861 -0.0148372585 -0.015833002 -0.024043314 -0.05886152 -0.044217832 -0.046294995 -0.030939495
-0.007552802 0.059307918 -0.028979098 -0.04704035 -0.036554646 -0.05307751 0.015835289 -0.050798386
-0.012140463 0.04046628 0.026430799 -0.023328971 -0.026628524 -0.044840053 -0.0032798522 -0.0620978
0.0649527 -0.01891474 -0.015093633 0.13326757 -0.005255333 -0.050964445 -0.0173503 -0.0415607
00000000: 98ac 8e3c 7258 66ba afcb fabb f18f 91bc
00000010: 2acb b33c d153 4b3d 808e 24bd 73a3 923c
00000020: 7d5e babb 5dd3 c63c 6d99 28bd c089 cabb
00000030: 1ed8 39bc 9320 e53b eccc 79ba 87c7 063d
00000040: 5fb5 36bd 86cb 3ebc 8c71 9bbc 0135 adbc
00000050: 020d 25bd 27b9 4fbd 52d9 1c3d b4be d53c
00000060: 32ac e0bb 7546 a3bd 28b1 3f3d 5ce5 183d
00000070: 8db8 35bc 678e 02bc 94e7 a13c 16c3 3d3d
00000080: bb46 693d f59f c73b f0b3 c8bc 029c 1d3d
00000090: 50b7 b4ba 4172 afbc 1e4b 79bd fca4 4dbd
000000a0: 2a4b 07bd 0d14 7ebd c460 42bd 14ab 8fbb
000000b0: d22c 043d a6ec e63c 7174 2c3b 7683 d1bc
000000c0: 4070 80bc bf65 4dbc 7792 eb3c e400 2abd
000000d0: 708b b0bb 5843 633d b877 3ebc ae2d 34bd
000000e0: b70b b5bb d6d7 093c 4f1e 2a3d 2d7d 2fbd
000000f0: fed4 20bd f53d c53c 5b45 b03c dac8 d0bc
00000100: 2e06 80bd 2eb9 42bd b239 463c 3238 a33c
00000110: a924 34bc f9ea b7bc bb55 4fbc 8c83 0c3d
00000120: 822c c43c ee16 3a3b cd0f 19bd ba76 ddbc
00000130: 0549 18bd 787f 423d 13e3 b43c ee97 3d3b
00000140: cdc8 aa3d ba21 713c ebce 66bd 9f79 9dbd
00000150: 68de 993c 8e69 f83b 6ae1 86bc f8d5 fbba
00000160: 6ad0 7d3c 73f5 f93c 36d7 8fba d77d 8a3b
00000170: 5754 e33a 33a1 0ebd 17a3 0abd 47b9 aabb
00000180: 7c8b f2bc a78f a63d ace9 c53d 1f7b 15bd
00000190: 4e84 fdbc 7b40 b5bd 079f 62bd c56d 84bb
000001a0: dcc5 53bc b7c5 6fbd 9de1 06bd 5214 343d
000001b0: d74c afbc de76 86bd 61c6 3fbd ea2f d73c
000001c0: 3c76 b03d 6ce8 283b f8ee 45bd 44bf abbd
000001d0: 271c ae3b 7675 063d e700 3dbd efea b7ba
000001e0: a47f adbb bf16 183d 9bc3 233d f689 9e3b
000001f0: 28fb 723c 6fe8 ca3c 607f 4d3c b6dc 87bd
00000200: 623f 50bd 78e9 9dbd 68f5 4ebd e9ee 293d
00000210: 9c93 873a 639a 1e3d b1a1 3a3d 17eb 553c
00000220: a241 053c 58c3 0dbb 8be2 e4bc 8ee6 97bd
00000230: 692a 973c caa2 3bbb 4566 c23d a862 f43d
00000240: 4d1e dabb ae0d 4ebd eeee 6ebd 8445 76bd
00000250: 1b82 0a3d 811e 32bc 0f21 123d 678e 1abd
00000260: b792 953c f010 2a3d d120 7abd 7ad9 c7bc
00000270: 3438 0abd b00f 43bd 60c3 3dbb d3fd 5ebc
00000280: b6ac d33c ca6b a53d d713 883c 0585 b1bd
00000290: 9ffa c2bc 2a4d 0dbd c596 e53d 3969 c93d
000002a0: f4bc 75bc fc54 1a3c f958 43bd daa4 a4bc
000002b0: 1a69 02bc 4c88 103c 868f 07bc 70af 14bd
000002c0: 8f45 3fbd ad10 26bd 362f 3d3d 5d6b 893d
000002d0: 3bdf 113b 3d40 a5bd 5c38 8ebd 961b 9d3b
000002e0: 9f25 0b3d e73b ab3c 8134 debc 48a7 e63b
000002f0: 0813 013d 31d5 09bd ac2e 50bd 95f4 8abb
00000300: 21ca 55bd eedd a1bc 76e4 c8bb 10c0 c5bc
00000310: 6b51 73bd 2f8c 9cbd 3a58 bebc 39ee 5dbc
00000320: 132a 71bd 4e2f baba c8e8 b1bc c60f a03d
00000330: 9c43 53bd 5fca 7e3b fafb 093e 8c4c 7abc
00000340: 87d6 83bd 55d7 aebd 42bd 61bd bd1c bc3c
00000350: 8f8c 58bc fb14 89bd b137 d9bd fd31 cbbd
00000360: 407b 2b3b d11c 8cbd c2bc 3cbd 318f 4dbd
00000370: 76e0 69bd 5cc0 10bd ce5d f8bc fd81 b03b
00000380: 1aec 813d f917 73bc 36b4 81bc 7cf6 c4bc
00000390: c718 71bd c21d 35bd d29f 3dbd d374 fdbc
000003a0: 7f7d f7bb dcec 723d 9365 edbc 62ad 40bd
000003b0: 53ba 15bd ce67 59bd 02b9 813c f811 50bd
000003c0: cbe8 46bc f8bf 253d 6785 d83c 661c bfbc
000003d0: 1024 dabc 34aa 37bd caf2 56bb 435a 7ebd
000003e0: ec05 853d 16f3 9abc 494b 77bc 4b77 083e
000003f0: ee34 acbb 18c0 50bd 3722 8ebc 8d3b 2abd

model.12.module.bias f4 [64]
0.048741374 0.0051124995 -0.001141658 -0.0005685289 -0.056864224 0.08859323 0.011102105 0.0324946
0.009489411 -0.020570375 -0.023360495 -0.0017916765 -0.03057407 -0.0062748855 0.030554742 0.07799138
-0.020376205 0.023947258 -0.04865205 -0.054158792 -0.01733269 0.044730324 -0.023679005 -0.047213472
-0.06002062 -0.03896119 -0.046186186 -0.0025120461 -0.0451883 0.0019338343 0.06709247 -0.012743045
-0.0542077 -0.032910444 0.02962265 -0.0032846376 -0.0031277214 0.076183066 0.022114415 0.0509405
0.0077125295 0.006561322 0.06608525 0.053366832 -0.058588255 -0.012546047 -0.032825317 0.001929506
0.06422903 0.02560214 -0.009908944 0.040326558 -0.04820868 -0.037547488 -0.06398295 -0.059091628
0.008281344 0.053664546 -0.015922308 -0.01128217 -0.03876611 0.050378263 -0.041376088 -0.041933086
00000000: 09a5 473d c186 a73b b0a3 95ba 5409 15ba
00000010: 76ea 68bd 5e70 b53d 9ae5 353c 0f19 053d
00000020: 7979 1b3c 3483 a8bc 825e bfbc b0d6 eaba
00000030: 7976 fabc 8e9d cdbb f04d fa3c f2b9 9f3d
00000040: 00ec a6bc 0a2d c43c 5f47 47bd 9cd5 5dbd
00000050: 49fd 8dbc 2537 373d 79fa c1bc ea62 41bd
00000060: 2ed8 75bd c595 1fbd ba2d 3dbd 24a1 24bb
00000070: 5e17 39bd b678 fd3a c767 893d 34c8 50bc
00000080: e508 5ebd 1acd 06bd 33ab f23c 1343 57bb
00000090: 75fa 4cbb de05 9c3d 4a29 b53c fca6 503d
000000a0: 63b9 fc3b 5c00 d73b b457 873d 2e97 5a3d
000000b0: 3dfa 6fbd ef8d 4dbc d773 06bd 7ae7 fc3a
000000c0: 828a 833d 94bb d13c 2059 22bc 762d 253d
000000d0: 7776 45bd 65cb 19bd 7e09 83bd 100a 72bd
000000e0: 79ae 073c 5bcf 5b3d 806f 82bc dad8 38bc
000000f0: 36c9 1ebd 7059 4e3d f979 29bd 07c2 2bbd

linear.weight f4 [4, 1280]
-0.06035327 0.0140459025 -0.0011901758 0.01662787 0.058081537 0.034692734 0.0499984 -0.07303427
0.025323056 0.019815065 0.0035084705 0.012799018 -0.08641471 -0.03416467 -0.058538705 0.023998154
-0.0039619296 0.069298126 0.043368995 0.03829311 0.02969759 0.010118971 0.01895392 -0.02037307
0.036119193 0.016143588 0.013294994 -0.042499464 0.04107276 -0.038085654 -0.009749313 0.007160557
0.012227477 -0.01946763 0.027400903 0.058482856 0.044033863 0.01633921 -0.010314553 -0.03789967
-0.004135188 -0.038834825 0.007906089 0.065999016 0.035933644 -0.012339006 -0.014451461 0.025924535
0.018066075 0.005051914 -0.03520804 0.031836133 -0.013913199 -0.023962758 0.0303947 -0.0055616633
-0.00809341 -0.019682312 -0.023332488 -0.0063255182 -0.054456186 0.027057633 -0.016582081 -0.04098894
-0.017067762 0.009301836 -0.021184385 0.019692456 0.060246456 -0.019353658 0.05991119 -0.03619094
-0.01637623 -0.004475057 0.0437972 0.09088958 -0.051733796 0.0071871057 -0.01263419 0.00674148
0.008819437 0.03958051 0.030583229 0.06950744 -0.018120196 0.00650549 0.033873044 -0.0032600956
0.09005783 -0.02848999 -0.015577636 -0.03974861 -0.027232245 0.024834134 0.0019425174 0.046261534
-0.027245063 0.044936724 0.00414789 0.051491 0.025804693 -0.01674587 -0.009426254 -0.019884335
0.0013998712 -0.0030545346 -0.034077477 0.11820224 -0.010961831 0.03706856 0.027165985 0.042211235
0.0373698 -0.0123412525 -0.026332645 0.014641446 -0.021574184 -0.0051365965 0.024417127 -0.0077808467
0.003335683 -0.008567724 -0.06923382 -0.022185665 -0.022856062 0.024116972 -0.01384893 -0.06671945
-0.036589064 -0.020099455 -0.020745462 0.009305267 0.0355138 -0.0028926667 0.10724892 -0.008132966
-0.010771265 0.054683406 0.03389857 0.09543929 -0.058797244 0.025855388 -0.048907116 0.0024073098
0.037617758 0.012870683 -0.012399762 0.07135518 0.024552422 -0.01289296 0.026418732 -0.008778474
0.0370486 -0.041485704 -0.013522044 -0.017349292 -0.024720186 0.017351067 -0.01794976 -0.00032411303
-0.007791436 0.031739008 -0.014366976 0.08146236 -0.020280097 -0.020094153 0.03857205 0.008772691
0.011149198 -0.005490297 -0.04807733 0.10408811 -0.0086576985 -0.009901165 0.038530372 0.021471655
0.0053291456 -0.0010724553 0.005165674 0.058985677 0.0034145634 -0.0018215857 0.023967832 0.042998884
0.0322268 0.014557923 -0.057968862 0.008705724 -0.025558358 0.032301817 0.0065293214 -0.06760176
-0.038910493 0.007742194 -0.032042094 0.007951376 0.031216642 0.022090545 0.045996644 -0.05678083
0.025268458 -0.0037792015 0.0582541 0.07481282 -0.030839855 0.013209522 0.005916717 -0.039200224
-0.02245817 -0.005132645 0.0098626865 0.013284777 0.0101520745 -0.05065905 0.015513829 0.028135207
-0.005042042 -0.027829394 -0.0011953708 -0.07440899 -0.031705532 0.016805418 -0.06149212 -0.008340261
0.0025336018 0.022639371 -0.03219464 0.032401975 -0.053374358 -0.024173824 -0.0059898826 -0.06185848
0.022459347 0.025753057 -0.04292594 0.04972472 -0.03693126 -0.014315138 -0.010157442 0.055201165
-0.04159915 -0.0029752299 0.024632217 0.016282544 0.030241003 -0.021391973 0.0057936893 0.019394772
-0.012749912 -0.034376148 -0.05840206 -0.017306956 -0.0061713024 -0.035150126 0.038289983 -0.070363924
00000000: fe34 77bd c920 663c acff 9bba 2c37 883c
00000010: e8e6 6d3d f819 0e3d 1fcb 4c3d fe92 95bd
00000020: 4c72 cf3c 3453 a23c 5eee 653b f9b2 513c
00000030: 32fa b0bd 41f0 0bbd 48c6 6fbd c797 c43c
00000040: 13d3 81bb 2dec 8d3d b0a3 313d 3cd9 1c3d
00000050: 5c48 f33c 0aca 253c 4045 9b3c 6de5 a6bc
00000060: b8f1 133d 8f3f 843c 3fd3 593c eb13 2ebd
00000070: e93b 283d b4ff 1bbd 95bb 1fbc 1ba3 ea3b
00000080: c155 483c 947a 9fbc dc77 e03c b88b 6f3d
00000090: da5c 343d cfd9 853c 5ffe 28bc af3c 1bbd
000000a0: 7980 87bb 4411 1fbd 8a88 013c 7e2a 873d
000000b0: 282f 133d 8b29 4abc d2c5 6cbc b15f d43c
000000c0: 4eff 933c 878a a53b 4e36 10bd 9b66 023d
000000d0: 30f4 63bc 8c4d c4bc 4efe f83c 9d3e b6bb
000000e0: 399a 04bc cd3c a1bc c623 bfbc 4b46 cfbb
000000f0: 730d 5fbd f8a7 dd3c 25d7 87bc 05e4 27bd
00000100: b1d1 8bbc ba66 183c e08a adbc 1352 a13c
00000110: fdc4 763d 908b 9ebc 7065 753d f33c 14bd
00000120: 7227 86bc 80a3 92bb b164 333d 5124 ba3d
00000130: d1e6 53bd d081 eb3b a2ff 4ebc a2e7 dc3b
00000140: 667f 103c 2c1f 223d ae89 fa3c eb59 8e3d
00000150: ce70 94bc 012c d53b 76be 0a3d 54a7 55bb
00000160: 3d70 b83d d763 e9bc 5739 7fbc 70cf 22bd
00000170: 2816 dfbc f470 cb3c 119c fe3a bc7c 3d3d
00000180: 0a31 dfbc 920f 383d 06eb 873b 3ae8 523d
00000190: 5d64 d33c a22e 89bc 9370 1abc 79e4 a2bc
000001a0: e27b b73a 962e 48bb d394 0bbd 0414 f23d
000001b0: 4099 33bc 34d5 173d 338b de3c b0e5 2c3d
000001c0: 1311 193d f732 4abc 8fb7 d7bc ade2 6f3c
000001d0: 58bc b0bc e550 a8bb 6d06 c83c 79f6 febb
000001e0: 799b 5a3b a45f 0cbc 76ca 8dbd b6be b5bc
000001f0: a33c bbbc f590 c53c 9fe6 62bc 35a4 88bd
00000200: 6ade 15bd 9da7 a4bc 63f2 a9bc 1e75 183c
00000210: eb76 113d e592 3dbb 52a5 db3d 2240 05bc
00000220: f679 30bc b5fb 5f3d 3ad9 0a3d ad75 c33d
00000230: 61d5 70bd aece d33c d452 48bd f5c3 1d3b
00000240: 1415 1a3d 8fdf 523c 5f28 4bbc aa22 923d
00000250: 2922 c93c fe3c 53bc 196c d83c 97d3 0fbc
00000260: 46c0 173d eaec 29bd 908b 5dbc 1a20 8ebc
00000270: fd81 cabc d323 8e3c 600b 93bc b7ed a9b9
00000280: 4d4f ffbb c300 023d 7763 6bbc bdd5 a63d
00000290: 7222 a6bc 7e9c a4bc bafd 1d3d 55bb 0f3c
000002a0: 20ab 363c f3e7 b3bb bcec 44bd 262c d53d
000002b0: 05d9 0dbc 7f38 22bc 06d2 1d3d 53e5 af3c
000002c0: 1da0 ae3b a191 8cba d044 a93b f79a 713d
000002d0: dec6 5f3b 46c2 eeba 3058 c43c 991f 303d
000002e0: 4000 043d 5b84 6e3c c270 6dbd 74a2 0e3c
000002f0: c35f d1bc e94e 043d ebf3 d53b cb72 8abd
00000300: 9c60 1fbd 3bb2 fd3b 923e 03bd 7d46 023c
00000310: 0bba ff3c 3bf7 b43c fa66 3c3d 0493 68bd
00000320: ccff ce3c 7bac 77bb da9b 6e3d 7737 993d
00000330: dda3 fcbc c06c 583c 05e1 c13b 6a90 20bd
00000340: 32fa b7bc bf2f a8bb 1b97 213c 65a8 593c
00000350: e354 263c dd7f 4fbd b72d 7e3c ce7b e63c
00000360: b737 a5bb 78fa e3bc fdad 9cba be63 98bd
00000370: a9dd 01bd 84ab 893c 29df 7bbd 97a5 08bc
00000380: c90a 263b 3476 b93c 87de 03bd efb7 043d
00000390: 129f 5abd 2f08 c6bc c746 c4bb 515f 7dbd
000003a0: aafc b73c 13f8 d23c 1cd3 2fbd 26ac 4b3d
000003b0: 3c45 17bd 0a8a 6abc 666b 26bc 9e1a 623d
000003c0: df63 2abd 13fc 42bb 81c9 c93c f862 853c
000003d0: fbbb f73c 383e afbc fdd8 bd3b c9e1 9e3c
000003e0: 02e5 50bc 01ce 0cbd 0037 6fbd 51c7 8dbc
000003f0: a338 cabb 94f9 0fbd f5d5 1c3d f61a 90bd

linear.bias f4 [4]
0.0028802247 -0.00455556 0.016304262 0.003105421
00000000: 27c2 3c3b cf46 95bb 8490 853c 5284 4b3b
